…
  model.add(layers.MaxPooling2D((2, 2)))
  
  model.add(layers.Conv2D(64, (5, 5), activation='relu'))
  model.add(layers.MaxPooling2D((2, 2)))
  
  model.add(layers.Flatten())
  model.add(layers.Dense(10, activation='softmax'))
  

Con el metodo summary() podemos ver esta informacion sobre los parametros de cada capa y formato de los tensores de salida de cada capa:

_________________________________________________________________
Layer (type)                 Output Shape              Param #   
=================================================================
conv2d_1 (Conv2D)            (None, 24, 24, 32)        832       
_________________________________________________________________
max_pooling2d_1 (MaxPooling2 (None, 12, 12, 32)        0         
_________________________________________________________________
conv2d_2 (Conv2D)            (None, 8, 8, 64)          51264     
_________________________________________________________________
max_pooling2d_2 (MaxPooling2 (None, 4, 4, 64)          0         
_________________________________________________________________
flatten_1 (Flatten)          (None, 1024)              0         
_________________________________________________________________
dense_1 (Dense)              (None, 10)                10250     
=================================================================
Total params: 62,346
Trainable params: 62,346
Non-trainable params: 0
_________________________________________________________________

Observando este resumen, se aprecia facilmente que en las capas convolucionales es donde se requiere mas memoria, y por ende computacion para almacenar los datos. En cambio, en la capa
…
  model.add(Dense(4096, activation='relu'))
  model.add(Dense(4096, activation='relu'))
  model.add(Dense(1000, activation='softmax'))
  

Invocando al metodo summary():
  
  model.summary()
  

Podemos obtener el detalle del formato de los tensores entre capas, asi como los parametros en cada capa. Pongan atencion al numero total de parametros que se requieren.





_________________________________________________________________
Layer (type)                 Output Shape              Param #   
=================================================================
conv2d_1 (Conv2D)            (None, 224, 224, 64)      1792      
_________________________________________________________________
conv2d_2 (Conv2D)            (None, 224, 224, 64)      36928     
_________________________________________________________________
max_pooling2d_1 (MaxPooling2 (None, 112, 112, 64)      0         
_________________________________________________________________
conv2d_3 (Conv2D)            (None, 112, 112, 128)     73856     
_________________________________________________________________
conv2d_4 (Conv2D)            (None, 112, 112, 128)     147584    
_________________________________________________________________
max_pooling2d_2 (MaxPooling2 (None, 56, 56, 128)       0         
_________________________________________________________________
conv2d_5 (Conv2D)            (None, 56, 56, 256)       295168    
_________________________________________________________________
conv2d_6 (Conv2D)            (None, 56, 56, 256)       590080    
_________________________________________________________________
conv2d_7 (Conv2D)            (None, 56, 56, 256)       590080    
_________________________________________________________________
max_pooling2d_3 (MaxPooling2 (None, 28, 28, 256)       0         
_________________________________________________________________
conv2d_8 (Conv2D)            (None, 28, 28, 512)       1180160   
_________________________________________________________________
conv2d_9 (Conv2D)            (None, 28, 28, 512)       2359808   
_________________________________________________________________
conv2d_10 (Conv2D)           (None, 28, 28, 512)       2359808   
_________________________________________________________________
max_pooling2d_4 (MaxPooling2 (None, 14, 14, 512)       0         
_________________________________________________________________
conv2d_11 (Conv2D)           (None, 14, 14, 512)       2359808   
_________________________________________________________________
conv2d_12 (Conv2D)           (None, 14, 14, 512)       2359808   
_________________________________________________________________
conv2d_13 (Conv2D)           (None, 14, 14, 512)       2359808   
_________________________________________________________________
max_pooling2d_5 (MaxPooling2 (None, 7, 7, 512)         0         
_________________________________________________________________
flatten_1 (Flatten)          (None, 25088)             0         
_________________________________________________________________
dense_1 (Dense)              (None, 4096)              102764544 
_________________________________________________________________
dense_2 (Dense)              (None, 4096)              16781312  
_________________________________________________________________
dense_3 (Dense)              (None, 1000)              4097000   
=================================================================
Total params: 138,357,544
Trainable params: 138,357,544
Non-trainable params: 0
_________________________________________________________________


Pero en Keras solo nos hace falta especificar las siguientes dos lineas para crearla, ademas de poderla tener ya iniciada con los parametros de una red ya entrenada (con Imagenet):
  
  from keras.applications import VGG16
  
  model = VGG16(weights='imagenet')
  
Nuevamente, si usamos el metodo summary() para obtener detalles de esta red, vemos que es identica en arquitectura, tensores y parametros que la que hemos programado nosotros a mano.
  
  model.summary()
  

_________________________________________________________________
Layer (type)                 Output Shape              Param #   
=================================================================
input_1 (InputLayer)         (None, 224, 224, 3)       0         
_________________________________________________________________
block1_conv1 (Conv2D)        (None, 224, 224, 64)      1792      
_________________________________________________________________
block1_conv2 (Conv2D)        (None, 224, 224, 64)      36928     
_________________________________________________________________
block1_pool (MaxPooling2D)   (None, 112, 112, 64)      0         
_________________________________________________________________
block2_conv1 (Conv2D)        (None, 112, 112, 128)     73856     
_________________________________________________________________
block2_conv2 (Conv2D)        (None, 112, 112, 128)     147584    
_________________________________________________________________
block2_pool (MaxPooling2D)   (None, 56, 56, 128)       0         
_________________________________________________________________
block3_conv1 (Conv2D)        (None, 56, 56, 256)       295168    
_________________________________________________________________
block3_conv2 (Conv2D)        (None, 56, 56, 256)       590080    
_________________________________________________________________
block3_conv3 (Conv2D)        (None, 56, 56, 256)       590080    
_________________________________________________________________
block3_pool (MaxPooling2D)   (None, 28, 28, 256)       0         
_________________________________________________________________
block4_conv1 (Conv2D)        (None, 28, 28, 512)       1180160   
_________________________________________________________________
block4_conv2 (Conv2D)        (None, 28, 28, 512)       2359808   
_________________________________________________________________
block4_conv3 (Conv2D)        (None, 28, 28, 512)       2359808   
_________________________________________________________________
block4_pool (MaxPooling2D)   (None, 14, 14, 512)       0         
_________________________________________________________________
block5_conv1 (Conv2D)        (None, 14, 14, 512)       2359808   
_________________________________________________________________
block5_conv2 (Conv2D)        (None, 14, 14, 512)       2359808   
_________________________________________________________________
block5_conv3 (Conv2D)        (None, 14, 14, 512)       2359808   
_________________________________________________________________
block5_pool (MaxPooling2D)   (None, 7, 7, 512)         0         
_________________________________________________________________
flatten (Flatten)            (None, 25088)             0         
_________________________________________________________________
fc1 (Dense)                  (None, 4096)              102764544 
_________________________________________________________________
fc2 (Dense)                  (None, 4096)              16781312  
_________________________________________________________________
predictions (Dense)          (None, 1000)              4097000   
=================================================================
Total params: 138,357,544
Trainable params: 138,357,544
Non-trainable params: 0
_________________________________________________________________


En realidad, Keras ofrece varios modelos preentrenados128  que como veremos en la segunda parte del libro son muy utiles para lo que se conoce transfer learning: Xception, VGG16, VGG19, ResNet50, InceptionV3, InceptionResNetV2, MobileNet, DenseNet y NASNet.
…
